chp4/model/mnist_dynamic2.onnx (onnx, 378461 bytes, 8 tensors)

model/dense/MatMul/ReadVariableOp:0 f4 [128, 10]
0.08035028 -0.07535414 -0.12914175 0.08042071 0.10193006 0.23053972 0.12069498 -0.06988795
0.09362543 0.019609373 -0.65827465 -0.1475798 0.3375998 -0.028612573 -0.3101927 -0.42746228
0.49178272 -0.22634625 0.33117476 -0.038848076 -0.08385553 -0.033169784 -0.080579825 0.024218662
-0.13507842 -0.05024688 -0.3019878 0.11907897 0.11874633 0.39801136 0.17505917 -0.9458018
1.8323762 -1.6881965 -0.45598513 -1.7985421 0.7353214 -0.5869454 0.71264726 -0.30818474
-0.028090848 -0.3042373 -0.14052719 0.010717946 0.08673473 -0.10427094 0.0012573199 -0.11237353
0.11983046 0.008431833 -0.08283045 -0.22058871 -0.077310115 0.14897154 -0.101230524 0.096161395
-0.24307787 -0.11828717 -0.123343244 -0.13554548 0.17330037 -0.10590159 0.025261339 -0.1270403
0.05559934 -0.11967396 -0.21928778 -0.11924439 -0.046722647 -0.093878046 0.0411289 -0.009089919
-0.2598196 0.057058528 -0.13262935 0.20167437 -0.2381507 0.14784741 0.058028754 -0.19429491
0.09520207 0.15149368 0.12701789 0.14746734 -0.069047935 0.11442885 -0.0895528 -0.18241039
-0.03404498 -0.1034798 0.04272209 -0.11220806 -0.005033119 -0.028627267 -0.17867634 -0.1014342
-0.08694928 0.017967705 -0.018784286 0.123108156 -0.5676573 -1.886221 -1.0729713 1.2366002
0.42280835 1.0094768 -0.04678995 -2.0353782 0.95961696 -0.17950216 0.2193098 0.013506685
0.0037140232 -0.08276406 -0.20574842 -0.15708555 0.096755184 -0.1850954 -0.035347383 -0.15513764
-0.0658006 -0.09721294 0.03207301 0.11870927 -0.25135806 0.20231602 -0.21631664 -0.106466904
0.025892502 0.006632725 0.041372426 -0.05058183 -0.24406193 0.0799745 0.0056205355 0.16742358
-0.25361782 -0.19724266 -0.092135124 0.20613435 0.11260928 0.09216095 -0.14400238 0.06503835
-0.030239671 0.14776054 -0.034925852 -0.092342384 -0.050573047 -0.0035604164 0.090556644 0.034682572
-0.07665018 -0.12182725 -0.0018303284 -0.18103842 -0.37109023 -0.11465666 0.070895515 0.0072167045
-0.13425758 -0.14721537 0.10846425 0.07763473 0.031263903 -0.11873531 0.095176294 0.04355133
-0.1195422 0.19489184 0.0880269 0.029906636 0.017225832 0.043057613 0.07287834 -0.02953989
-0.10880851 -0.013108984 0.13727686 0.12873678 -0.22180682 -0.41832966 -0.08351806 0.23022273
-0.06354389 0.0733684 -0.017226072 -0.115943275 0.022153206 -0.058031406 0.13536544 0.03498804
-0.04962342 -0.07122436 -0.06478064 -0.2658969 -0.09784831 0.04597535 -0.0064957947 -0.06973928
0.13342994 -0.026544876 0.16788287 0.11089531 -0.0820309 0.06958953 -0.16522805 -0.028661089
-0.051430732 0.019125832 -1.1305854 -2.4847515 0.5669136 2.650438 -0.3446743 -1.8485367
-1.4409052 -0.6903347 1.7788879 -0.11773261 -0.05982395 -0.09884842 -0.11513135 -0.19986324
0.059308764 -0.032742597 -0.030264989 -0.15610647 0.17668425 0.07163591 0.006697287 0.17161074
-0.10209155 0.03186695 0.09789869 -0.0013464728 0.055501454 0.0026008205 0.25862855 -0.10354914
-2.0769484 0.08757487 0.8745229 0.79098296 -0.030815883 0.499448 1.093252 -0.12181777
-0.41855943 -0.884188 0.27776033 -0.0052954075 0.09348368 -0.08917767 0.13051626 -0.011788394
00000000: b08e a43d 4553 9abd bc3d 04be 9db3 a43d
00000010: b5c0 d03d 9b12 6c3e ee2e f73d 6a21 8fbd
00000020: b0be bf3d d6a3 a03c b084 28bf 291f 17be
00000030: e2d9 ac3e ea64 eabc 94d1 9ebe 56dc dabe
00000040: f2ca fb3e 50c7 67be bd8f a93e 291f 1fbd
00000050: 73bc abbd 0add 07bd 0907 a5bd 3766 c63c
00000060: ff51 0abe accf 4dbd 259e 9abe addf f33d
00000070: 4731 f33d 25c8 cb3e b642 333e 1120 72bf
00000080: 4e8b ea3f d316 d8bf e276 e9be a136 e6bf
00000090: 063e 3c3f 0e42 16bf 0d70 363f 64ca 9dbe
000000a0: c71e e6bc fec4 9bbe 5ce6 0fbe 539a 2f3c
000000b0: faa1 b13d 018c d5bd a8cc a43a 1824 e6bd
000000c0: ac69 f53d ac25 0a3c 03a3 a9bd 02e2 61be
000000d0: c454 9ebd ff8b 183e f351 cfbd 44f0 c43d
000000e0: 68e9 78be 8b40 f2bd 629b fcbd 6fcc 0abe
000000f0: a775 313e efe2 d8bd def0 ce3c da16 02be
00000100: 22bc 633d 9f17 f5bd fa8c 60be 6736 f4bd
00000110: 3f60 3fbd 2243 c0bd c776 283d e2ed 14bc
00000120: 1307 85be 34b6 693d fdcf 07be ba83 4e3e
00000130: c7dd 73be 5065 173e 8faf 6d3d 3ff5 46be
00000140: 4ef9 c23d 2921 1b3e fa10 023e ae01 173e
00000150: 0169 8dbd ac59 ea3d 7567 b7bd cac9 3abe
00000160: c072 0bbd 38ed d3bd 5cfd 2e3d 57cd e5bd
00000170: ddec a4bb bb83 eabc eef6 36be bcbc cfbd
00000180: 7712 b2bd 0231 933c 81e1 99bc 2120 fc3d
00000190: fd51 11bf b16f f1bf 2057 89bf ea48 9e3f
000001a0: 567a d83e 8936 813f d2a6 3fbd a343 02c0
000001b0: 75a9 753f 6acf 37be c092 603e 254b 5d3c
000001c0: f866 733b 3480 a9bd b7af 52be 09db 20be
000001d0: 9527 c63d a689 3dbe 6bc8 10bd 67dc 1ebe
000001e0: 77c2 86bd 9417 c7bd fd5e 033d d91d f33d
000001f0: 01b2 80be ee2b 4f3e 1c82 5dbe 520b dabd
00000200: 831c d43c 5457 d93b 2276 293d e52e 4fbd
00000210: 5feb 79be acc9 a33d 782c b83b 1671 2b3e
00000220: 32da 81be fbf9 49be 57b1 bcbd e214 533e
00000230: b29f e63d e1be bc3d 5c75 13be d432 853d
00000240: 30b9 f7bc 8a4e 173e 690e 0fbd 011e bdbd
00000250: af25 4fbd e055 69bb c375 b93d 500f 0e3d
00000260: c5fa 9cbd 9180 f9bd a1e7 efba 2362 39be
00000270: 8aff bdbe 1cd1 eabd ab31 913d 1b7a ec3b
00000280: d27a 09be a0bf 16be 8122 de3d f5fe 9e3d
00000290: 940e 003d 802b f3bd caeb c23d e162 323d
000002a0: 8ad2 f4bd ba91 473e 7347 b43d c3fe f43c
000002b0: 301d 8d3c 2e5d 303d 3d41 953d a4fd f1bc
000002c0: ffd6 debd 10c7 56bc 4e92 0c3e 93d3 033e
000002d0: 5421 63be 4e2f d6be 840b abbd 82bf 6b3e
000002e0: 4d23 82bd 2c42 963d b11d 8dbc ab73 edbd
000002f0: a47a b53c 57b2 6dbd 3d9d 0a3e 9e4f 0f3d
00000300: ed41 4bbd 14de 91bd b6ab 84bd a323 88be
00000310: b264 c8bd a650 3c3d adda d4bb 78d3 8ebd
00000320: dca1 083e a474 d9bc 7de9 2b3e 151d e33d
00000330: d1ff a7bd f584 8e3d 8b31 29be a9ca eabc
00000340: 08a9 52bd c7ad 9c3c 06b7 90bf 2b06 1fc0
00000350: 4021 113f c7a0 2940 2679 b0be da9c ecbf
00000360: 956f b8bf c6b9 30bf 99b2 e33f cb1d f1bd
00000370: f509 75bd 0a71 cabd fcc9 ebbd f3a8 4cbe
00000380: bfed 723d 1a1d 06bd 48ee f7bc 60da 1fbe
00000390: b7ec 343e d9b5 923d ea74 db3b baba 2f3e
000003a0: 6015 d1bd eb86 023d 1c7f c83d 217c b0ba
000003b0: 7e55 633d 8772 2a3b f66a 843e 9211 d4bd
000003c0: b9ec 04c0 745a b33d bce0 5f3f dc7d 4a3f
000003d0: 9771 fcbc a6b7 ff3e aeef 8b3f 987b f9bd
000003e0: 6c4d d6be 255a 62bf 9a36 8e3e 1985 adbb
000003f0: 5f74 bf3d c8a2 b6bd 0ea6 053e 1c24 41bc

model/dense/BiasAdd/ReadVariableOp:0 f4 [10]
-0.08474178 -0.124502316 0.19218941 0.6677533 0.6565139 -0.9465204 0.074029185 0.2449374
-0.34340394 -0.34052795
00000000: 198d adbd 12fb febd 4dcd 443e e1f1 2a3f
00000010: 4c11 283f 294f 72bf 9d9c 973d dfd0 7a3e
00000020: a4d2 afbe ae59 aebe

model/conv2d_2/Conv2D/ReadVariableOp:0 f4 [128, 64, 3, 3]
-0.02459955 -0.0066901576 0.06477849 0.014499194 -0.03913657 -0.027185228 0.00724893 0.060820475
-0.054102313 0.1031441 0.04300189 0.056185845 0.06918864 0.098057754 0.10168555 0.047560625
0.014045639 -0.028114391 -0.025933454 -0.12341586 -0.051427573 -0.022936499 -0.06640842 -0.013068122
-0.07202154 -0.050284147 -0.042245153 0.026908023 0.10288758 0.03614338 -0.013811718 0.08807808
0.07403985 -0.01591337 -0.00058420695 0.07386732 -0.27258417 -0.16931394 -0.10393608 -0.23791216
-0.13817927 -0.061784327 -0.009898686 -0.06994439 -0.059575282 -0.069552764 -0.001319572 -0.05961206
-0.10738736 -0.045101598 -0.07255248 -0.10895386 -0.022233596 -0.094238535 0.120495036 0.011130273
0.092092305 0.055049554 0.015617681 0.027944535 0.0445823 0.026303912 0.06356625 -0.006611507
0.023767602 -0.030764688 0.01281607 0.0024246173 -0.029210327 -0.0939491 0.016629407 -0.013701299
0.043115713 0.0006866154 0.041493375 0.039964855 0.086839885 0.064070374 0.0032730028 0.10372014
0.11025858 -0.09036025 -0.0282903 -0.062205706 -0.067272 -0.09955616 -0.12915649 -0.113720916
-0.068101056 -0.043821502 -0.09150721 -0.24115048 -0.22221465 -0.018388398 -0.0499438 -0.036151033
-0.07793544 -0.037780195 -0.070345916 -0.059330493 -0.07040106 0.05546833 0.0024717525 -0.09395288
0.02196028 0.008591235 -0.048920516 0.07515158 -0.009935245 -0.07635625 -0.016618153 -0.12312119
-0.07739666 -0.06909775 -0.06670946 -0.036195654 -0.054019753 0.027234023 0.101336814 0.018346714
0.10652306 0.081901565 0.078958906 0.051975735 0.07620762 0.031147959 -0.052919783 0.02407591
0.0075625842 -0.071904756 -0.07952844 -0.084750205 -0.03421951 0.018855996 -0.04743706 -0.026459841
-0.019388672 -0.017073294 0.003284068 -0.054357298 -0.03712048 -0.060051356 -0.04450661 0.0012205329
0.059825446 0.020627009 0.00046571277 0.02907967 0.03338541 0.0075132377 0.0026889944 -0.005711564
0.087035224 -0.0042236997 -0.019451242 -0.039967842 -0.05296268 -0.08962172 -0.05876649 -0.0362449
-0.042937018 -0.024906572 -0.039165884 -0.028158281 -0.03829313 -0.029780384 -0.044834338 -0.08892524
-0.015745163 -0.08220522 -0.08273233 -0.16845462 -0.0908865 -0.17656393 -0.023205187 -0.093274616
-0.07586142 -0.06733227 -0.048073847 -0.05190068 -0.09732055 -0.08526787 -0.037993804 -0.067947954
-0.039601143 -0.083195746 -0.058078893 -0.046303228 -0.030418796 0.09557561 0.09461036 0.05201789
0.049599137 0.05877334 0.09577542 0.068843104 0.05146981 0.018261202 -0.06747229 -0.23288184
-0.18637499 -0.13904533 -0.21472137 -0.26794124 0.0066420473 0.074324414 0.053742714 -0.053508446
-0.08788618 -0.08677774 0.0111756995 -0.07536607 -0.076056324 -0.050495278 -0.06071563 -0.07683833
0.0005516444 0.056501064 0.09970983 -0.0012324892 0.061844304 -0.0019595223 -0.10093621 -0.022497015
0.06714188 0.086889215 0.029540362 0.08969128 0.015096596 0.09055967 0.093280934 0.064354405
0.07572814 0.062904745 -0.016932448 0.050430935 -0.019729162 -0.10255927 0.074200355 0.08331364
-0.060262848 0.060628258 0.1050906 -0.09998158 -0.11747204 -0.11635996 -0.3540275 -0.23435275
-0.20571093 -0.11678889 -0.08984507 -0.1070691 -0.08721792 0.07745642 0.043062482 -0.025180342
00000000: ff84 c9bc 1c39 dbbb 96aa 843d 078e 6d3c
00000010: ab4d 20bd 8eb3 debc 6f88 ed3b e41e 793d
00000020: 639a 5dbd 373d d33d c022 303d 2123 663d
00000030: c6b2 8d3d 81d2 c83d 8340 d03d eece 423d
00000040: ae1f 663c 2750 e6bc 6572 d4bc 74c1 fcbd
00000050: b8a5 52bd 53e5 bbbc 2301 88bd ad1b 56bc
00000060: 0780 93bd c0f6 4dbd 4109 2dbd 376e dc3c
00000070: b9b6 d23d 150b 143d 8b4a 62bc 4862 b43d
00000080: 34a2 973d c15c 82bc 7725 19ba c047 973d
00000090: 2790 8bbe a260 2dbe 71dc d4bd 3f9f 73be
000000a0: de7e 0dbe 9011 7dbd 192e 22bc 013f 8fbd
000000b0: 3605 74bd ae71 8ebd 7df5 acba c72b 74bd
000000c0: e7ed dbbd 74bc 38bd 6596 94bd 3423 dfbd
000000d0: 3b23 b6bc 2200 c1bd 1ac6 f63d c05b 363c
000000e0: e49a bc3d a47b 613d 4de1 7f3c f0eb e43c
000000f0: ee9b 363d 4d7b d73c 062f 823d 57a5 d8bb
00000100: 46b4 c23c 3a06 fcbc 7efa 513c 54e6 1e3b
00000110: 7f4a efbc 6368 c0bd 653a 883c 6a7b 60bc
00000120: 1a9a 303d fbfd 333a f5f4 293d 30b2 233d
00000130: 1cd9 b13d 5437 833d e07f 563b 3a6b d43d
00000140: 40cf e13d cb0e b9bd 0fc1 e7bc 69cb 7ebd
00000150: e7c5 89bd 1ae4 cbbd 9941 04be 83e6 e8bd
00000160: 9178 8bbd 2d7e 33bd 2268 bbbd 27f0 76be
00000170: 3d8c 63be 44a3 96bc df91 4cbd 1b13 14bd
00000180: 9e9c 9fbd 68bf 1abd 8511 90bd 8804 73bd
00000190: 6e2e 90bd c232 633d 20fd 213b 5e6a c0bd
000001a0: 0ce6 b33c 40c2 0c3c e160 48bd 12e9 993d
000001b0: 70c7 22bc aa60 9cbd cb22 88bc f626 fcbd
000001c0: 2482 9ebd 1f83 8dbd f89e 88bd e541 14bd
000001d0: d143 5dbd e319 df3c ad89 cf3d d94b 963c
000001e0: c328 da3d 02bc a73d 35b5 a13d 82e4 543d
000001f0: be12 9c3d 012a ff3c 6ac2 58bd d83a c53c
00000200: 8ecf f73b cd42 93bd cfdf a2bd 8491 adbd
00000210: c229 0cbd e477 9a3c 5d4d 42bd 4fc2 d8bc
00000220: fed4 9ebc 4bdd 8bbc 8539 573b c2a5 5ebd
00000230: a50b 18bd 69f8 75bd 904c 36bd 4afa 9f3a
00000240: 870b 753d f9f9 a83c e92a f439 7d38 ee3c
00000250: 24bf 083d 9b31 f63b d739 303b 1228 bbbb
00000260: 863f b23d f666 8abb 3658 9fbc 52b5 23bd
00000270: 65ef 58bd 988b b7bd 22b5 70bd 8875 14bd
00000280: bade 2fbd de08 ccbc 686c 20bd 32ac e6bc
00000290: 42d9 1cbd fef5 f3bc 36a4 37bd 701e b6bd
000002a0: 00fc 80bc 365b a8bd 916f a9bd 5e7f 2cbe
000002b0: b422 babd 2dcd 34be ce18 bebc c306 bfbd
000002c0: 3b5d 9bbd 80e5 89bd 15e9 44bd cf95 54bd
000002d0: ff4f c7bd eca0 aebd 649f 1bbd 4c28 8bbd
000002e0: cf34 22bd 8862 aabd 22e4 6dbd 74a8 3dbd
000002f0: d730 f9bc 25bd c33d 14c3 c13d b610 553d
00000300: 7728 4b3d 50bc 703d e725 c43d 9dfd 8c3d
00000310: 02d2 523d 8498 953c e92e 8abd 9478 6ebe
00000320: 16d9 3ebe e661 0ebe ebdf 5bbe 982f 89be
00000330: 88a5 d93b 6637 983d 5221 5c3d ac2b 5bbd
00000340: abfd b3bd 87b8 b1bd 481a 373c 8759 9abd
00000350: 6bc3 9bbd 23d4 4ebd f4b0 78bd 6a5d 9dbd
00000360: 3b9c 103a a96d 673d ab34 cc3d 7a8b a1ba
00000370: 7450 7d3d 546b 00bb a5b7 cebd a94b b8bc
00000380: af81 893d f9f2 b13d a1fe f13c 10b0 b73d
00000390: b757 773c 5977 b93d 130a bf3d 3ecc 833d
000003a0: 5b17 9b3d 34d4 803d ebb5 8abc ab90 4e3d
000003b0: 0d9f a1bc 980a d2bd 5bf6 973d 57a0 aa3d
000003c0: 2dd6 76bd 5655 783d be39 d73d 25c3 ccbd
000003d0: 2e95 f0bd 214e eebd 1843 b5be 2bfa 6fbe
000003e0: e3a5 52be 032f efbd b100 b8bd 0b47 dbbd
000003f0: 4f9f b2bd 79a1 9e3d 4962 303d 0147 cebc

model/conv2d_2/BiasAdd/ReadVariableOp:0 f4 [128]
-0.15990025 -0.31402692 -0.11499079 -0.1462826 -0.084957264 -0.056724083 -0.07861362 -0.057489336
-0.04483641 -0.02459102 -0.701365 -0.109847486 -0.048697464 -0.049177468 -0.043856874 -0.051191762
-0.07157329 -0.040418863 -0.21617024 -0.13245542 -0.028032804 -0.5550693 -0.03645129 -0.028541295
-0.81294876 -0.07359842 -0.094276436 -0.044675265 -0.51013476 -0.040116772 -0.91677713 -0.04133944
-0.18453532 -0.13661245 0.3059241 -0.13846527 -0.29133186 -0.037631303 -0.044566102 -0.10444077
-0.072953224 -0.20273753 -0.060142003 -0.041676693 -0.06568578 -1.5254533 -0.06016863 0.14203583
-0.20630799 -0.06647239 -0.073890895 -0.04269309 -0.060786527 -0.06391601 -0.033546407 -0.06558098
-0.075084046 -0.25298613 -0.08388394 -0.19040342 -0.017584566 -0.038545202 -0.4470471 -0.06153044
-0.24863622 -0.07272304 -0.06003981 -0.6169226 -0.14416783 -0.057056434 -0.08310619 -0.07020849
-2.193405 -0.045198034 -0.2704736 -0.037673704 -0.029753566 -0.43847343 -0.05074477 -0.061551414
-0.052360404 -0.13019404 -0.1680085 -0.060037185 -0.9491786 -0.18100064 -0.05334148 -0.2301832
-0.06256266 -0.17023127 -0.31976196 -0.04357001 -0.060030814 0.27930725 -1.1364809 -0.09826894
-0.13565329 -0.06159872 -0.057015777 -0.060113564 -0.054997966 -1.0743365 -0.12318461 0.36224103
-0.23859116 -0.49622312 -0.059081092 -0.11057128 -0.06642652 -0.85401976 -0.028780712 -0.11824896
-0.23138562 -0.060176123 0.047786757 -2.0216093 0.27488735 -0.0861436 -0.066335775 -0.041477643
-0.115571104 -0.07679137 -0.06218253 -0.12027206 -1.5204357 -0.07286412 -0.12745892 -1.0707828
00000000: e4bc 23be 23c8 a0be 4b80 ebbd 1bcb 15be
00000010: 13fe adbd 8357 68bd 2d00 a1bd f079 6bbd
00000020: 62a6 37bd 1b73 c9bc a88c 33bf b8f7 e0bd
00000030: fe76 47bd 506e 49bd 44a3 33bd 74ae 51bd
00000040: 0495 92bd 408e 25bd bb5b 5dbe 65a2 07be
00000050: 0da5 e5bc 0619 0ebf f34d 15bd 6fcf e9bc
00000060: 691d 50bf c5ba 96bd 0114 c1bd 69fd 36bd
00000070: 3198 02bf 7c51 24bd e8b1 6abf 8b53 29bd
00000080: d4f6 3cbe 22e4 0bbe 15a2 9c3e d7c9 0dbe
00000090: 7329 95be 4823 1abd f28a 36bd 0be5 d5bd
000000a0: 8068 95bd 6d9a 4fbe 7657 76bd 2eb5 2abd
000000b0: 4486 86bd 0e42 c3bf 6273 76bd d771 113e
000000c0: 6742 53be ad22 88bd 1c54 97bd f3de 2ebd
000000d0: 4bfb 78bd 66e6 82bd f567 09bd 524f 86bd
000000e0: aac5 99bd 6687 81be 58cb abbd 1df9 42be
000000f0: 820d 90bc 93e1 1dbd 5ce3 e4be 5807 7cbd
00000100: 7e9a 7ebe d1ef 94bd 4eec 75bd a4ee 1dbf
00000110: bba0 13be 02b4 69bd 9433 aabd 78c9 8fbd
00000120: bf60 0cc0 9321 39bd 847b 8abe be4f 1abd
00000130: c0bd f3bc 977f e0be bfd9 4fbd 561d 7cbd
00000140: dd77 56bd 9651 05be 6c0a 2cbe 8de9 75bd
00000150: 5efd 72bf 3b58 39be 997c 5abd 25b5 6bbe
00000160: da20 80bd 1b51 2ebe d7b7 a3be 7876 32bd
00000170: dfe2 75bd 5c01 8f3e 3578 91bf 3a41 c9bd
00000180: b2e8 0abe f04e 7cbd 6089 69bd a439 76bd
00000190: 8c45 61bd dc83 89bf 3648 fcbd a877 b93e
000001a0: 3e51 74be f510 febe 04ff 71bd 3273 e2bd
000001b0: a10a 88bd 0aa1 5abf 87c5 ebbc 832c f2bd
000001c0: 5af0 6cbe 3d7b 76bd 0cbc 433d 0c62 01c0
000001d0: 09be 8c3e 0e6c b0bd 0ddb 87bd 76e4 29bd
000001e0: 8bb0 ecbd cb44 9dbd 1cb3 7ebd 3351 f6bd
000001f0: a39d c2bf c939 95bd 9784 02be 690f 89bf

model/conv2d_1/Conv2D/ReadVariableOp:0 f4 [64, 32, 3, 3]
-0.009887791 -0.1216816 -0.13398817 -0.12136716 0.017825088 -0.005728943 -0.008346127 0.023433924
-0.12053404 -0.13390413 -0.03537986 -0.061052468 -0.07642268 0.0085649155 0.013180493 -0.07536805
-0.020012187 -0.089397185 0.0072969156 -0.1005386 -0.02302063 -0.10479772 0.008443997 -0.12129633
0.043670177 -0.11716397 0.025293399 0.00890715 -0.13849027 -0.11354072 0.02639294 0.0025919124
-0.12603943 -0.057198416 0.010829298 -0.0065244148 -0.110657774 -0.025192728 -0.14181551 0.0051164096
-0.0012598435 0.00020098244 -0.071605995 -0.07938621 -0.06579164 -0.06937873 -0.0773814 -0.08681132
-0.035273127 -0.028919384 -0.0044581615 -0.04329407 -0.09252657 0.019990692 -0.109087996 -0.048920024
0.024986926 0.023903271 -0.07837838 -0.026025442 -0.11870717 -0.04263767 -0.031996887 -0.1013489
-0.07892574 -0.10647863 -0.07873283 -0.053671733 -0.094319515 -0.0072675194 -0.019744994 -0.08125352
-0.08594646 0.0034683165 -0.012954377 0.04044867 -0.008873499 0.03735538 -0.06604657 0.030923828
0.026393028 -0.07911659 -0.073899336 -0.08782775 -0.04533289 -0.066562474 0.029354949 0.020755282
-0.071615085 -0.06385271 0.011605205 -0.11060252 -0.10559554 -0.047403406 -0.013716599 -0.1297269
-0.11255877 0.019236967 -0.11648757 -0.08549718 -0.079588465 -0.06814884 -0.014437307 -0.053869687
0.0094277 -0.09401712 0.0069135427 -0.013386081 -0.0440933 -0.07598515 -0.05242789 -0.012216073
-0.09162631 -0.09078693 -0.0130377 -0.09262801 -0.020074088 -0.07945158 -0.079374924 -0.03231712
-0.063267976 0.0195006 0.0009985944 -0.10415056 -0.08578847 -0.033864535 -0.037593655 0.012268896
-0.047316547 -0.032184333 0.006766331 -0.008301077 -0.02201545 -0.045394156 -0.088963 0.009778052
0.003904432 0.024399849 -0.11967499 -0.03719418 -0.10755203 0.019784488 -0.07123713 -0.10169338
-0.06571335 -0.053142365 0.0005472969 0.0013382575 -0.079176515 -0.12483062 -0.032365758 -0.05031548
-0.035583474 -0.07228652 0.020181647 -0.08773199 0.03083762 -0.09654915 -0.07029239 -0.0030333751
-0.09619155 -0.019472124 -0.03375197 -0.0002001161 -0.077449724 -0.124579094 -0.05237338 -0.077420495
-0.11039696 -0.013777126 0.00017660052 -0.047524728 -0.07552752 -0.084725715 -0.11008632 0.0026417817
-0.09955359 -0.063206054 -0.11870558 -0.052655745 -0.113849826 -0.14627232 -0.09600426 0.038584705
-0.011775805 -0.11377493 0.026464213 -0.12351599 0.03605524 -0.092810676 0.020630095 -0.12919131
0.026640994 0.007898972 -0.0817318 -0.12474479 -0.011624519 -0.101545505 -0.05351798 -0.13361382
-0.07607528 -0.063477114 0.032587264 -0.051870845 0.014656144 -0.0850217 -0.021601407 -0.093466245
-0.08339258 -0.018140964 -0.12609571 0.025739372 -0.0971238 -0.0244442 0.0028469604 -0.034928307
-0.100911215 -0.10661433 -0.063171744 -0.08043262 -0.028509926 0.0018392075 -0.1216685 -0.044776157
-0.0469724 -0.019060424 0.0049033905 0.048629574 -0.084611505 0.035472285 -0.05020642 -0.0455604
0.0018178036 -0.06550644 0.021854535 -0.044984654 -0.092141114 -0.11510454 0.008216687 -0.006068005
0.06457464 -0.023888756 0.0026260612 -0.09453574 -0.13328497 -0.023206428 -0.053023983 0.013043863
-0.05579864 -0.08598884 -0.0761898 -0.12631945 -0.088748 -0.13129246 -0.11704785 -0.09356799
00000000: 6700 22bc 3434 f9bd 3234 09be 588f f8bd
00000010: eb05 923c dbb9 bbbb 32be 08bc 80f8 bf3c
00000020: 8dda f6bd 2a1e 09be 79ea 10bd 2712 7abd
00000030: 7e83 9cbd dc53 0c3c fff2 573c 905a 9abd
00000040: 99f0 a3bc df15 b7bd f71a ef3b 2ee7 cdbd
00000050: c395 bcbc 30a0 d6bd b158 0a3c 366a f8bd
00000060: 80df 323d aaf3 efbd 1a34 cf3c 4bef 113c
00000070: 65d0 0dbe 0988 e8bd 0236 d83c 13dd 293b
00000080: 7b10 01be e348 6abd 5e6d 313c c2ca d5bb
00000090: 8ba0 e2bd fb60 cebc 1638 11be 8ea7 a73b
000000a0: 5521 a5ba d0be 5239 2aa6 92bd 3d95 a2bd
000000b0: c4bd 86bd 7016 8ebd 247a 9ebd 22ca b1bd
000000c0: 8e7a 10bd 58e8 ecbc c515 92bb 1f55 31bd
000000d0: 927e bdbd 85c3 a33c 8769 dfbd 5d60 48bd
000000e0: 62b1 cc3c cbd0 c33c d884 a0bd 4f33 d5bc
000000f0: bf1c f3bd d6a4 2ebd 2b0f 03bd 0390 cfbd
00000100: d2a3 a1bd 7811 dabd ae3e a1bd e4d6 5bbd
00000110: 972a c1bd 5f24 eebb 41c0 a1bc 3f68 a6bd
00000120: b304 b0bd b24c 633b 983e 54bc 81ad 253d
00000130: 2762 11bc f401 193d 6d43 87bd f853 fd3c
00000140: 3136 d83c e107 a2bd 8958 97bd 09df b3bd
00000150: fbae 39bd e851 88bd ca79 f03c fb06 aa3c
00000160: eeaa 92bd 36c5 82bd c223 3e3c 9383 e2bd
00000170: 7942 d8bd 132a 42bd 96bb 60bc 21d7 04be
00000180: 3685 e6bd d896 9d3c 0991 eebd 2519 afbd
00000190: 47ff a2bd 9e91 8bbd 748a 6cbc 76a6 5cbd
000001a0: a476 1a3c 0c8c c0bd 008b e23b 4b51 5bbc
000001b0: 2d9b 34bd 1a9e 9bbd a1be 56bd ed25 48bc
000001c0: 93a6 bbbd 7fee b9bd 149c 55bc c1b3 bdbd
000001d0: 6a72 a4bc 83b7 a2bd 528f a2bd f55e 04bd
000001e0: a492 81bd b9bf 9f3c 45e3 823a e44c d5bd
000001f0: deb1 afbd 8ab5 0abd cefb 19bd 7b03 493c
00000200: ffce 41bd b8d3 03bd 19b8 dd3b 3e01 08bc
00000210: bf59 b4bc 39ef 39bd 3c32 b6bd 1f34 203c
00000220: 80e1 7f3b 31e2 c73c 2918 f5bd ed58 18bd
00000230: 3d44 dcbd 1413 a23c c6e4 91bd 9e44 d0bd
00000240: b994 86bd cfab 59bd 7978 0f3a 7868 af3a
00000250: 4c27 a2bd 32a7 ffbd f591 04bd 9b17 4ebd
00000260: fabf 11bd f40a 94bd fb53 a53c d4ac b3bd
00000270: 2d9f fc3c 90bb c5bd 75f5 8fbd 97cb 46bb
00000280: 1300 c5bd 0184 9fbc 813f 0abd 42d6 51b9
00000290: f69d 9ebd 5323 ffbd 7885 56bd a38e 9ebd
000002a0: cd17 e2bd 74b9 61bc d72d 3939 4aa9 42bd
000002b0: 2cae 9abd ad84 adbd f074 e1bd be21 2d3b
000002c0: c1e2 cbbd 2d72 81bd e91b f3bd 8dad 57bd
000002d0: 192a e9bd 69c8 15be e29d c4bd ff0a 1e3d
000002e0: 4eef 40bc d502 e9bd 7acb d83c f4f5 fcbd
000002f0: a9ae 133d 8613 bebd 7200 a93c ba4a 04be
00000300: 373e da3c b16a 013c 0163 a7bd 327a ffbd
00000310: c474 3ebc 17f7 cfbd ab35 5bbd 10d2 08be
00000320: 5bcd 9bbd 4a00 82bd 397a 053d 8676 54bd
00000330: 5320 703c db1f aebd 6ff5 b0bc 3b6b bfbd
00000340: bbc9 aabd 5c9c 94bc 3c1f 01be 60db d23c
00000350: d8e8 c6bd 343f c8bc 1294 3a3b fc10 0fbd
00000360: 8aaa cebd 9d58 dabd 3060 81bd dcb9 a4bd
00000370: a68d e9bc 9011 f13a 562d f9bd 3467 37bd
00000380: 2266 40bd 9b24 9cbc 9fac a03b ce2f 473d
00000390: cc48 adbd 634b 113d 3fa5 4dbd 8b9d 3abd
000003a0: 5e43 ee3a 3e28 86bd 4808 b33c d441 38bd
000003b0: 7bb4 bcbd eebb ebbd 489f 063c 1ed6 c6bb
000003c0: b53f 843d 5ab2 c3bc ff19 2c3b f49b c1bd
000003d0: db7b 08be 681b bebc ad2f 59bd edb5 553c
000003e0: 1d8d 64bd eb1a b0bd 6609 9cbd e359 01be
000003f0: 83c1 b5bd 8871 06be c8b6 efbd 93a0 bfbd

model/conv2d_1/BiasAdd/ReadVariableOp:0 f4 [64]
-0.06760615 -0.0609777 -0.05397673 -0.11536911 0.7620971 -0.049661327 -0.07557386 -0.062901884
-0.06416411 -0.0411818 0.6237261 -0.065266974 -0.06484497 -0.065586135 -0.06989857 -0.059429318
-0.06926262 -0.056667525 -0.06662366 -0.04563391 -0.06095869 -0.060425695 0.054296453 -0.049616396
-0.0683323 -0.066427216 -0.060310893 1.5667579 -0.057651907 -0.040277727 -0.07752303 -0.054057103
-0.051259056 -0.068408355 -0.10604271 -0.06545326 -0.05923156 -0.07168303 -0.070395485 -0.05817694
-0.060735818 -0.06001949 -0.04902371 -0.049125783 -0.056369107 -0.075298816 -0.049303938 -0.05999036
-0.15043932 -0.061372492 -0.060696542 -0.074415684 -0.06619025 -0.101062484 -0.05715438 -0.063402265
-0.061207622 -0.07894262 -0.064988635 -0.21884583 -0.06650789 -0.063657485 -0.060004037 -0.044556085
00000000: 1875 8abd c1c3 79bd b416 5dbd a446 ecbd
00000010: cc18 433f ad69 4bbd 78c6 9abd b4d2 80bd
00000020: 7968 83bd 3fae 28bd 84ac 1f3f b1aa 85bd
00000030: 71cd 84bd 0652 86bd fb26 8fbd 286c 73bd
00000040: 8fd9 8dbd 351c 68bd fc71 88bd 9fea 3abd
00000050: d2af 79bd ef80 77bd f565 5e3d 903a 4bbd
00000060: cef1 8bbd fe0a 88bd 8e08 77bd 868b c83f
00000070: 6824 6cbd 42fa 24bd 65c4 9ebd fb6a 5dbd
00000080: 04f5 51bd ae19 8cbd ec2c d9bd 5c0c 86bd
00000090: cb9c 72bd 8dce 92bd 822b 90bd f14a 6ebd
000000a0: 1fc6 78bd ffd6 75bd 16cd 48bd 1e38 49bd
000000b0: 4be3 66bd 4436 9abd edf2 49bd 74b8 75bd
000000c0: c40c 1abe b961 7bbd f09c 78bd 4067 98bd
000000d0: c18e 87bd d9f9 cebd b61a 6abd 0cd9 81bd
000000e0: d8b4 7abd abac a1bd c318 85bd 1f19 60be
000000f0: 4a35 88bd db5e 82bd cbc6 75bd 7180 36bd

model/conv2d/Conv2D/ReadVariableOp:0 f4 [32, 1, 3, 3]
1.1688731 0.13823429 -0.5098498 1.206965 -0.34475154 -2.1831114 1.0569836 -0.72978693
-2.3560872 -0.59980714 1.6508142 0.78616095 0.84750956 0.87333447 -0.6009485 0.06292142
-3.4757214 0.24927166 0.03919231 -0.022037482 -0.13427189 -0.17702293 -0.14477795 -0.21832635
-0.04985613 0.036492188 0.012252647 -0.08345159 -0.17379743 -0.042259645 0.043538332 -0.13548657
-0.17354883 -0.032170337 -0.2741385 -0.06825848 0.008165814 -0.010547803 -0.22014198 -0.32314077
-0.046715677 0.03741662 0.035912257 -0.19071065 -0.18972388 0.08460602 -0.343276 -0.119594365
-0.12767547 -0.0059562535 -0.12822199 -0.09032701 -0.008168488 -0.18115672 -0.025142718 -0.051933777
-0.17889221 -0.093667954 -0.21954876 -0.045057636 -0.062351122 -0.122241534 0.004942168 -0.15028909
-0.11772951 -0.19995445 -0.1516416 -0.10893283 -0.11582954 0.046318777 -0.18724625 0.010700304
-0.17718998 -0.11165077 -0.102496706 -0.031082228 -0.0017357259 -0.14889686 -0.020842018 -0.051046938
0.01219406 -0.039315596 -0.088416174 -0.08263597 -0.21216443 -0.08702105 -0.18106316 -0.025117453
-0.09277378 -0.27363542 -0.056796655 1.2680541 1.842966 -1.3327893 0.7888235 -0.5747992
-5.2997756 -2.3099985 -2.7796094 -0.06266034 0.029189982 -0.018657621 -0.1779573 -0.068836436
-0.11493107 -0.02967213 0.022251712 -0.16857374 -0.61739826 0.5188264 0.7715801 0.6819999
0.82040244 0.7830977 -0.321931 -3.0749004 0.11607873 0.0053531216 -0.00040803853 -0.17537422
-0.13702355 -0.016310165 -0.076692924 -0.12534384 0.02303144 -0.17418511 -0.20358855 -0.11610125
-0.09643622 -0.019362874 0.044899765 -0.11443745 -0.037790112 -0.00628798 -0.06543981 -0.13086826
-0.04051569 -0.032437995 0.047136832 -0.011401273 0.014218439 -0.18661638 -0.1688916 0.002643984
-0.024380472 -0.13370416 -0.1720453 -0.10804489 -0.04488942 -0.23222959 -0.10555507 -0.27352813
-0.12398942 1.4771087 0.22684874 -1.9554524 0.2550195 1.5399709 -0.11809256 -0.6648832
0.9793694 0.80763185 -3.1562319 -2.5426672 -1.6386373 0.6377009 0.20509505 -2.8434675
1.4355186 1.0140855 0.04995614 -0.100221016 -0.13424814 -0.08778965 -0.21461202 -0.13159081
0.023673339 -0.010238361 -0.15687004 -0.013542512 -0.35404223 -0.11552521 0.52503246 0.407453
0.88913274 0.6851171 -0.109927736 0.21561004 -0.6397575 0.6895639 -2.4850776 0.08438126
2.0093057 -0.6746588 -0.018956097 0.49182305 -0.44060233 0.1245444 -1.9066627 -1.3424702
-2.5495818 0.26669458 0.62419206 0.104526326 0.57665527 0.87670743 1.0064857 -0.25183627
-0.18462941 -0.17393064 -0.08809807 -0.03078948 0.07596821 -0.059436 -0.19374065 -0.022943946
0.7823892 1.8149295 -2.8498225 0.8851819 -1.2293814 -2.598342 -4.180833 -3.6541836
1.0968039 -0.04645777 -0.17319086 0.06435249 -0.07202962 -0.12126529 -0.12669243 -0.13935456
-0.025064884 -0.0077498145 0.27847886 0.99527144 0.85599554 -0.47216406 -1.3564268 -0.5243859
-0.4604547 -1.2618189 0.42021897 0.011046109 -0.06446573 -0.089701764 -0.24874604 0.0068016504
-0.08482185 -0.10347191 0.051291946 -0.11069629 -0.0051951297 -0.20408279 -0.07660038 0.045690432
00000000: a29d 953f 4a8d 0d3e 8485 02bf d47d 9a3f
00000010: 4683 b0be 19b8 0bc0 3d4b 873f 51d3 3abf
00000020: 22ca 16c0 f68c 19bf e14d d33f d841 493f
00000030: 63f6 583f d992 5f3f c3d7 19bf f2dc 803d
00000040: 3872 5ec0 1241 7f3e 1e88 203d f387 b4bc
00000050: 927e 09be 8045 35be ac40 14be f190 5fbe
00000060: f135 4cbd d578 153d 54bf 483c abe8 aabd
00000070: f4f7 31be 7318 2dbd 4055 323d febc 0abe
00000080: c9b6 31be 0bc5 03bd e25b 8cbe 1acb 8bbd
00000090: e8c9 053c b1d0 2cbc e66c 61be b572 a5be
000000a0: f058 3fbd 2b42 193d bb18 133d a749 43be
000000b0: fa46 42be ec45 ad3d dfc1 afbe e4ed f4bd
000000c0: 5cbd 02be ad2c c3bb a04c 03be 5efd b8bd
000000d0: 1fd5 05bc 2681 39be 1af8 cdbc 83b8 54bd
000000e0: 852f 37be fcd4 bfbd 64d1 60be 5b8e 38bd
000000f0: e463 7fbd c559 fabd e9f1 a13b 62e5 19be
00000100: 2b1c f1bd dcc0 4cbe f047 1bbe 2d18 dfbd
00000110: 0a38 edbd c2b8 3d3d 7bbd 3fbe 5450 2f3c
00000120: 4a71 35be 29a9 e4bd cbe9 d1bd 28a0 febc
00000130: 4c81 e3ba 6b78 18be e1bc aabc 9816 51bd
00000140: 98c9 473c 6409 21bd 8a13 b5bd 0c3d a9bd
00000150: a241 59be 1838 b2bd 9f68 39be 1ec3 cdbc
00000160: 2e00 bebd f119 8cbe 9ca3 68bd 994f a23f
00000170: 4fe6 eb3f d798 aabf 56f0 493f 0a26 13bf
00000180: c397 a9c0 04d7 13c0 1fe5 31c0 1054 80bd
00000190: d41f ef3c ded7 98bc 703a 36be 1efa 8cbd
000001a0: fb60 ebbd f712 f3bc 3949 b63c 989e 2cbe
000001b0: d00d 1ebf cfd1 043f 4686 453f 8c97 2e3f
000001c0: e505 523f 1779 483f 24d4 a4be 2bcb 44c0
000001d0: afba ed3d 3d69 af3b 01ee d5b9 4d95 33be
000001e0: e74f 0cbe e59c 85bc 2e11 9dbd 235a 00be
000001f0: 6eac bc3c 955d 32be 8479 50be 7ec6 edbd
00000200: 5a80 c5bd e49e 9ebc d1e8 373d 2f5e eabd
00000210: cec9 1abd 660b cebb 4f05 86bd 5402 06be
00000220: c8f3 25bd b4dd 04bd 8d12 413d 68cc 3abc
00000230: 75f4 683c 5d18 3fbe ebf1 2cbe b146 2d3b
00000240: 8eb9 c7bc bee9 08be a52c 30be a446 ddbd
00000250: f8dd 37bd 98cd 6dbe 422d d8bd e10b 8cbe
00000260: 2aee fdbd e611 bd3f 094b 683e 444c fabf
00000270: ea91 823e c41d c53f 83da f1bd c935 2abf
00000280: f4b7 7a3f f6c0 4e3f b4ff 49c0 0fbb 22c0
00000290: debe d1bf 5e40 233f 7004 523e 5ffb 35c0
000002a0: 13bf b73f 8ecd 813f cf9e 4c3d ad40 cdbd
000002b0: 5878 09be 0fcb b3bd 41c3 5bbe bebf 06be
000002c0: 97ee c13c ccbe 27bc 8aa2 20be 6ae1 5dbc
000002d0: 0645 b5be 7b98 ecbd 8768 063f ae9d d03e
000002e0: 349e 633f d663 2f3f cb21 e1bd e1c8 5c3e
000002f0: 26c7 23bf 4287 303f 830b 1fc0 15d0 ac3d
00000300: 7798 0040 70b6 2cbf d149 9bbc 3bd0 fb3e
00000310: a196 e1be 2211 ff3d 860d f4bf 10d6 abbf
00000320: 592c 23c0 318c 883e 0dcb 1f3f e611 d63d
00000330: ae9f 133f e66f 603f 86d4 803f aff0 80be
00000340: 7e0f 3dbe e01a 32be c36c b4bd 383a fcbc
00000350: 3995 9b3d 2a73 73bd f363 46be f1f4 bbbc
00000360: a94a 483f 9c4f e83f 7e63 36c0 489b 623f
00000370: 5f5c 9dbf 3c4b 26c0 62c9 85c0 25de 69c0
00000380: 1264 8c3f 814a 3ebd f258 31be 3dcb 833d
00000390: 4484 93bd f059 f8bd a9bb 01be f6b2 0ebe
000003a0: df54 cdbc 28f2 fdbb c894 8e3e 1cca 7e3f
000003b0: 8622 5b3f 7dbf f1be 659f adbf 283e 06bf
000003c0: b8c0 ebbe 4883 a1bf f126 d73e bdfa 343c
000003d0: 9c06 84bd 8fb5 b7bd 48b7 7ebe 61e0 de3b
000003e0: 14b7 adbd 15e9 d3bd 8117 523d bdb4 e2bd
000003f0: e83b aabb 14fb 50be a9e0 9cbd e425 3b3d

model/conv2d/BiasAdd/ReadVariableOp:0 f4 [32]
-0.13753822 -0.23659611 -0.0858301 -0.1111538 -0.14027865 -0.090923764 -0.09644017 -0.07416184
-0.0951589 -0.08094912 -0.14421237 -0.049419127 -0.21416655 -0.046290223 -0.056942947 -0.055247042
-0.12815848 -1.6813537 -0.08245779 -0.09283232 -0.9691131 -0.29501274 -0.5631202 -0.0759831
0.36290544 -0.0716376 -0.28451717 -0.14131707 -0.098288804 -0.04787375 -0.08681635 -0.14721237
00000000: d2d6 0cbe 4046 72be b1c7 afbd 9aa4 e3bd
00000010: 35a5 0fbe 3d36 babd 6d82 c5bd 2ae2 97bd
00000020: abe2 c2bd a7c8 a5bd 68ac 13be b66b 4abd
00000030: 7a4e 5bbe d19a 3dbd 023d 69bd b94a 62bd
00000040: fa3b 03be 9936 d7bf a1df a8bd df1e bebd
00000050: cc17 78bf e90b 97be a528 10bf 079d 9bbd
00000060: bece b93e bcb6 92bd 3cac 91be 6cb5 10be
00000070: a44b c9bd 4417 44bd c5cc b1bd d7be 16be
